best_model.pth (torch, 299957 bytes, 20 tensors)

network.0.weight f4 [256, 45]
00000000: b548 473e 779b 7bbd f7f5 353e 43b4 b4bd
00000010: 02b9 433c 4f18 c4bd 61bf a7be 72ac 943d
00000020: 6ff2 2dbe 448c 7f3e 2733 ed3d d0ca 54be
00000030: 0e10 43be 3e96 b63e 5038 eabc 26fb 193c
00000040: 927b 6bbe 8d48 883e 0859 0b3d b498 af3d
00000050: 4cbf 303e ab62 083c f9c6 c0bc cabd c83d
00000060: 32d1 413e 27a9 0d3c a54c 51be 7320 96bd
00000070: 7e2f 683d d740 003e d014 bcbd 9fd4 8c3d
00000080: 64b2 4d3d 38d0 d5bc 1fe9 fe3c e811 2ebd
00000090: 6f42 223e 66d3 843d 9d4f 593e f757 953d
000000a0: 938a 9abd b6c4 273e 4cb8 033d da88 0cbe
000000b0: f783 27be 391d e03d 3cb3 9cbe 40f8 edbd
000000c0: aadb 803e f3d8 963d 9ce5 a43d 2015 90be
000000d0: 6843 e7bd f1d9 963e 1593 ae3d 8746 acbd
000000e0: d071 643e c4f2 2b3e f047 013e bc06 f3bd
000000f0: ae70 8dbc 8151 3cbe 5f41 49be 2694 203e
00000100: a91c e73c 8e13 85bd 42ca 333d f186 bdbe
00000110: b1f7 93bc 0fb0 5abd 88ec aa3d a281 c3bd
00000120: 1509 b6be 8811 d9bd bb35 3abd 30ce 00be
00000130: 7ccf edbd 492b 1a3e 988f e2bd 05b4 15be
00000140: 7b31 ee3d c7dd 1abe 3a78 a03c 80e8 4f3d
00000150: c7bd 83bd 2cee 873d 8475 e93d 460d 12be
00000160: 6893 07be 1267 9ebd 6e29 a7bd c385 76be
00000170: 68c1 6cbd ec5c 8c3d daee ccbd ccc8 693d
00000180: c558 2dbe 1383 34bc 0671 48bd 6203 90bd
00000190: 6c3e f83d 7e16 22bf 71d5 72bc bee0 643e
000001a0: 6cb8 9e3d a148 c23d 0f89 37bd 3bb0 98be
000001b0: f265 e9bc a45e 18bd 4d6d 07bc f0a8 1abe
000001c0: c456 8abd f8a4 c73d 7012 95bd 8974 153e
000001d0: 55e3 86bd d52d 2b3e a86c ed3c 15ba 9abd
000001e0: 7352 fb3d 0ec8 93bd 8826 16be ca2a 6c3d
000001f0: b328 a33d 925d 6bbb c5b9 303d 9a7c 483b
00000200: 95df f73c 6a88 2cbe 3628 3e3e 23b9 debd
00000210: fc8e f1bc 5077 093c 5afb a33d 8e17 43bd
00000220: f083 85bd b669 3dbe 2cfd 07be f044 803d
00000230: b59e c2bd 5a69 4abd 28de de3c b0c8 afbe
00000240: 3f1a 9c3d e3e6 333e ef5c 25bf 4cf9 15be
00000250: 5cfe 09be 3f2b e4be ffd2 d8bc fcb5 203e
00000260: a48d 5dbe d0c4 093d a621 3fbd 895c ddbc
00000270: e3c0 d8bb 32e7 05be b930 573d 10de 4ebe
00000280: 8225 35bd 812a a8bd 1805 c13d ef37 b9bd
00000290: b562 463d 4d3c e3bc f61c a9bd 06ed 64bc
000002a0: 0bc5 01bd 20de 563d 6622 d13d 11d8 1fbc
000002b0: 07fa ab3d 0bf6 b43d fc79 083d 9bff 31be
000002c0: 77eb 003c 1219 babd 9400 723d 3f5c 283c
000002d0: be87 73be 3f65 193d c4b1 253e e297 013e
000002e0: 502c b03d 8cd7 293e 290f 4abd ca22 443d
000002f0: f85f c8bd a48e 51bd 7ad1 e8bc 84ca 66bf
00000300: d187 72bb 4e45 633e 5592 8b3e bc74 5b3d
00000310: 52db 58be ac98 173e 5953 e2bd 7132 9a3d
00000320: 8f48 9c3d 0a9b be3d 969e 49bd 6a48 2abd
00000330: bdaa b5bd 83f5 11be 126b b93d e2de 2e3e
00000340: b70b 243d ad38 3a3c 3085 57bc d1b5 30bd
00000350: 1e9e 373d 0ed1 343c 88d4 183e 3fcd 00be
00000360: c636 483d f20f 3ebc 775d 9abd 6b6e 52bd
00000370: f1e3 25bc d3d9 ccbd 7aae eb3d 4149 043e
00000380: 4d37 233e ba30 0bbe 9d44 c73d ed3c 0bbd
00000390: 7f37 133b 8530 7fbb 8c54 c13d dc75 84bb
000003a0: c816 a1bd 3ecd b53c 1803 52bd 5cb5 d9bd
000003b0: 32d7 bc3c 0ef2 49be 30d5 9d3e 6467 223e
000003c0: d891 12be 7f03 ccbe e193 4ebe 1ee3 863c
000003d0: bf8b 29bd caf4 603d 73f3 2d3e bd5b b63d
000003e0: 4200 b7bd 8495 4dbc 6fe0 95bd 0a34 833e
000003f0: a8b6 083e 824e 18be 9001 403e 4833 4a3d
0.1946133 -0.06142756 0.1776961 -0.08823445 0.011945965 -0.09574949 -0.32763198 0.07259454
-0.16987012 0.24955851 0.11582022 -0.20780492 -0.19049093 0.356615 -0.028591305 0.009398257
-0.22996357 0.26617852 0.034020454 0.08574048 0.17260474 0.0083243055 -0.023532378 0.098018244
0.18927458 0.008646286 -0.20439394 -0.07330408 0.056685917 0.12524734 -0.09183657 0.06876492
0.050218955 -0.026100263 0.03111702 -0.042497545 0.15845655 0.064856336 0.21221776 0.072921686
-0.07545962 0.16383633 0.03215818 -0.1372408 -0.16358934 0.10943074 -0.30605495 -0.116196156
0.2516759 0.073655985 0.08051607 -0.28141117 -0.112921536 0.2946315 0.085241474 -0.084118895
0.22309041 0.16791826 0.12625098 -0.11866519 -0.017265644 -0.18390466 -0.19653843 0.15681514
0.028211908 -0.064978704 0.04389406 -0.37017015 -0.018062444 -0.05339056 0.08345896 -0.0954621
-0.35553804 -0.10599047 -0.045461398 -0.12578654 -0.1161184 0.15055574 -0.110625446 -0.14619453
0.116305314 -0.15123664 0.019588578 0.05075884 -0.064326815 0.066372246 0.113993675 -0.14262876
-0.13239825 -0.07734503 -0.08162199 -0.24074464 -0.057801634 0.06853661 -0.10006495 0.05707626
-0.16928394 -0.011017579 -0.048935913 -0.07031895 0.12121281 -0.6331557 -0.014821396 0.22351357
0.077500194 0.09486509 -0.044808444 -0.29821953 -0.028490994 -0.03719963 -0.008265805 -0.15103507
-0.067548305 0.09748262 -0.07278907 0.14595236 -0.06586329 0.16716702 0.028982475 -0.075550236
0.12271585 -0.07215892 -0.14663136 0.057657994 0.07966747 -0.0035913927 0.043145914 0.0030591846
0.03025798 -0.16848913 0.18570027 -0.10875156 -0.029487126 0.008390263 0.08006926 -0.047629885
-0.06519306 -0.18497357 -0.13280171 0.06263149 -0.09502927 -0.049416877 0.027205542 -0.343328
0.076221935 0.17568545 -0.6459493 -0.1464588 -0.13475937 -0.44564244 -0.026467798 0.15694422
-0.21636063 0.03363496 -0.04666295 -0.027021663 -0.0066147908 -0.13076475 0.0525367 -0.20201898
-0.044225223 -0.08211232 0.094248 -0.090438716 0.048433978 -0.027738715 -0.08257477 -0.013972526
-0.031682055 0.05245793 0.10211639 -0.009756104 0.08397298 0.088359915 0.03331946 -0.17382662
0.007868639 -0.09086813 0.059082583 0.010275899 -0.2378225 0.03745007 0.16181093 0.12655595
0.08602202 0.16586131 -0.049330864 0.04788474 -0.097839296 -0.051161423 -0.028420199 -0.90152764
-0.0037007222 0.22194406 0.2726008 0.053578123 -0.21177414 0.14804333 -0.110510536 0.07529152
0.07631027 0.09306915 -0.049223505 -0.041572966 -0.08870456 -0.14253812 0.09053625 0.1707721
0.040050235 0.011366052 -0.013154313 -0.043142144 0.044828527 0.011036171 0.14924824 -0.12578295
0.04888036 -0.011600481 -0.07537358 -0.051374834 -0.010125146 -0.10002484 0.11507888 0.12918569
0.15939064 -0.13592806 0.09729884 -0.03399365 0.0022463498 -0.0038938832 0.09439954 -0.0040423702
-0.07865673 0.022192594 -0.05127248 -0.10630295 0.023051832 -0.19721243 0.30826712 0.15859753
-0.14313447 -0.39846417 -0.20173599 0.01646572 -0.041393038 0.05492095 0.169874 0.089042164
-0.08935596 -0.012547854 -0.07318198 0.2562564 0.13350928 -0.14873698 0.18750596 0.04936531

network.0.bias f4 [256]
00000000: c9b0 0f3e ab4e 54bc d107 b6bc 2d68 d33d
00000010: e70b a53d 65e1 46bd e42d c83d 5492 573d
00000020: 32aa b73d 3603 c6bd 553f 933d 0f65 083e
00000030: 3163 8c3d 882d 0d3c 7656 ee3c 5263 50bd
00000040: 2f4e 163d 6335 773d 6db1 ec3b e6ae 543d
00000050: a6a1 293e e077 dc3d 64d8 023d 6efc e93d
00000060: 5fd4 813d 71e1 aabc 0c77 463d 02ae 7dbd
00000070: 72f9 d63d d667 8fbd 34fc c4bd 95f8 323d
00000080: ffef 07be 1748 9fbd 80d9 8e3d 7e4c fdbd
00000090: 50c7 0abc 1ca8 ddbd f44e 31bd 35df 95bd
000000a0: 20b0 483c 9e7a aabd f780 c4bd 5708 b03d
000000b0: f240 1a3e 8c26 da3d f1b8 d73d b828 dd3c
000000c0: 7f62 a03d eb2d 0dbd a41c a73d 63b3 093e
000000d0: f0c7 78bc 6735 1e3e 4fa9 dfbd 7f4e 19bd
000000e0: cfd7 bd3d 72c4 973c 22d0 c93c 7a6b 043e
000000f0: e244 a2bd 81ba be3d e517 823c 7bfd 9bbd
00000100: e87f b0bb 6b04 c73b 6eb1 e83c a12d b13c
00000110: 404d 173e d369 ee3b 21ac a6bc 982c 03be
00000120: 69e2 133e 2624 fdbd e37d ad3d a9b6 f93c
00000130: 92c3 2cbc 046e 01be d99e 72bd 84a1 3f3d
00000140: 7b28 a1bd b994 b5bd 9f24 103c 0f30 a0bd
00000150: 6e9d d5bc 70f2 ad3d 584d 0cbd 2df1 9dbd
00000160: d16d 27bd 42a3 19be 64ac fc3d 6ac1 133e
00000170: 67b5 f8bd 3f9e 0e3e d4e7 d9bd fcb6 af3d
00000180: 7c5c 3ebc a0be d1bd fb15 923d 78f9 9f3c
00000190: fa6d babd 7b5e 95bd 8d29 debd 22fe 013e
000001a0: 311b 0e3d c5ac e3bc ceb0 40bd dee9 2abd
000001b0: 8c18 023c 9dae 9abd 838e 05be 3dc1 ac3d
000001c0: cc93 943d 6f83 033e a8d4 a63d 7e93 0e3d
000001d0: 438a 14be 233c 353d 631e 3ebd b839 943c
000001e0: 28ef 8b3d ef71 32bd ced9 9fbb 6d09 9f3d
000001f0: 2f9a e23d c8b6 b43d e547 e33d 1987 913d
00000200: ea4b e6bd 850b c03a 0ef8 963d 0a68 d0bd
00000210: d042 fcbd c643 a6bd 198f 09be 605b 02be
00000220: bf74 d6bd 9370 4cbd b86c 483d 9a79 9a3d
00000230: 733a 22be 5b29 ab3d 31d8 763c bebd 2bbd
00000240: f792 173e d4e2 3ebd e886 fb3d 8a7a 16be
00000250: 9f44 84bb 1f82 193e a8ca 0b3e 72d8 06bc
00000260: 5e82 ce38 b5cb d1bc 7e91 0c3e 88a7 0abc
00000270: d51b 093e 75c7 b8bd 99b2 d7bd fb63 2cbb
00000280: 5ebd 17be 29a9 123e 6267 8dbc dc07 903c
00000290: a3de ae3c b020 483d 24e0 4abd 97ff a43d
000002a0: 6a5c ecbc 9cbf 093e 7e51 943b 275d 143e
000002b0: 8091 453b 5bc9 883d e67c eabd a515 023e
000002c0: 5738 f9bc c8a2 a1bd 2030 dd3d ad0e 21bc
000002d0: ce58 92bc 3c7e 04be ea1c ba3d 7450 023e
000002e0: 4583 0b3e bfa0 7ebd 6f13 693d c72e bd3c
000002f0: 69c2 303c 5f98 a8bc 754c 6c3d 62d4 fd3d
00000300: 6707 2abd 9986 05bd f44a f2bc c691 51bd
00000310: d043 d2bd d85a 883d 0cc0 c3bc 6b87 1e3e
00000320: 31cb f0bb 0430 c43d 49d9 08be 6ad7 b43d
00000330: 8199 113e 308f c0bd 5e0d 01bd e639 eabd
00000340: 151c 88bc 4935 f4bd c16b 85bd a568 c2bd
00000350: 365f cd3d 0af9 493d 7224 1bbe 8d8c e53d
00000360: 3b93 cd3d 2f5a c33c 861d 0b3c d705 c0bd
00000370: 1d77 c4bd 8221 9dbc b1e2 ce3d 36ba afbd
00000380: 0b6c d7bd 61d1 e43d 9718 aa3d 4dce 15bd
00000390: c9e7 e93d 1362 02be 246e 653d 1538 a63d
000003a0: d867 8a3d 27cb 01be 0451 103e 440f e53d
000003b0: b23e e4ba 88f2 07be 4b69 9cbd 7006 1b3e
000003c0: 1177 8dba e9d6 b2bd ee27 013d a4a4 5d3c
000003d0: a52a af3d 5652 293d a665 f53d 0ae7 9bbd
000003e0: 505d 9bbd e2e6 03bc 2326 953d 1196 cabd
000003f0: 8735 f7bd 98ba 183d 6772 18be 710d 0b3d
0.14032282 -0.012958209 -0.022220524 0.10322604 0.08058911 -0.048554797 0.09774378 0.052629784
0.08968009 -0.09668581 0.07189814 0.13319801 0.06854857 0.0086168125 0.029093962 -0.05087597
0.036695655 0.060353648 0.0072232992 0.05192461 0.1656557 0.10765052 0.031944647 0.114251
0.06339335 -0.020859452 0.048453376 -0.061933525 0.10496797 -0.07002227 -0.096184164 0.043694098
-0.13275145 -0.07777422 0.069750786 -0.12368105 -0.008470371 -0.1082308 -0.043288186 -0.07317964
0.012249023 -0.083241686 -0.095949106 0.08595341 0.15063837 0.106518835 0.10533322 0.026996955
0.07831287 -0.03446762 0.0815976 0.13447337 -0.015184388 0.15450059 -0.10920965 -0.037428375
0.09269678 0.01852629 0.024635378 0.12931624 -0.079232946 0.093129165 0.015880534 -0.07616707
-0.0053863414 0.0060735247 0.028404918 0.021628203 0.14775562 0.007275799 -0.02034575 -0.1280998
0.14441837 -0.123604104 0.084712766 0.030482607 -0.0105446745 -0.12639624 -0.05923352 0.046784893
-0.07869049 -0.08866257 0.008797794 -0.078216664 -0.026076045 0.08493507 -0.03425345 -0.07712016
-0.040876213 -0.15003684 0.123375684 0.1442925 -0.12143975 0.13927554 -0.10639921 0.085798234
-0.01161873 -0.10241437 0.07133099 0.019528136 -0.091030076 -0.07293411 -0.10847769 0.126946
0.0346939 -0.027792344 -0.047043614 -0.04172694 0.007940423 -0.07552836 -0.13042645 0.08435295
0.072547525 0.12843107 0.0814603 0.03480863 -0.14505868 0.044246804 -0.046415698 0.018093929
0.06832725 -0.043565687 -0.0048782593 0.0776547 0.110645644 0.08823925 0.11097697 0.07105846
-0.11244948 0.0014651871 0.073715314 -0.10176094 -0.12317431 -0.081183955 -0.13433494 -0.1273017
-0.10471486 -0.049912047 0.048931807 0.07542725 -0.15842609 0.08357497 0.0150661925 -0.041929
0.14802156 -0.04660304 0.12281591 -0.14695182 -0.0040365006 0.14991044 0.13651526 -0.0082303155
9.847128e-05 -0.02560983 0.13727376 -0.008462794 0.13389523 -0.090224184 -0.10532112 -0.002630471
-0.14818332 0.14322342 -0.01726121 0.017581873 0.021346396 0.0488593 -0.049530163 0.080565624
-0.02885266 0.13452 0.004526316 0.1448866 0.003014654 0.066790305 -0.11449604 0.12703569
-0.030422373 -0.07892376 0.10800195 -0.009830159 -0.017864611 -0.1293878 0.09087546 0.12726003
0.13624294 -0.06216502 0.0569033 0.023093594 0.0107885385 -0.020580469 0.057690103 0.123940244
-0.041510966 -0.032599065 -0.029576756 -0.05116441 -0.102668405 0.06657952 -0.023895286 0.15481345
-0.007348441 0.09579471 -0.13364138 0.088301495 0.14218713 -0.09402311 -0.03150689 -0.114368245
-0.016614953 -0.11924226 -0.06514693 -0.094926156 0.10027926 0.049309768 -0.15150622 0.112084486
0.100378476 0.023846714 0.008490926 -0.09376114 -0.095930316 -0.019181017 0.10101832 -0.08580439
-0.105186544 0.11172748 0.083054714 -0.036573697 0.11421163 -0.12732725 0.05601324 0.081161655
0.06758088 -0.12675153 0.14093405 0.11184552 -0.0017413704 -0.13276112 -0.076372705 0.15139174
-0.0010792931 -0.08732397 0.03153222 0.013528023 0.08553056 0.041338287 0.119822785 -0.076124266
-0.07586157 -0.008050652 0.072826646 -0.09891904 -0.120707564 0.037287325 -0.14887391 0.033948366

network.1.weight f4 [256]
00000000: 3499 7c3f 6924 883f bbc8 913f 3eec 8c3f
00000010: f555 843f 617d 843f f6c1 563f 1955 853f
00000020: 9ebd 423f 2822 8f3f 61a4 993f 6822 823f
00000030: 5c7e 6f3f b227 803f 41d9 8f3f 987d 6a3f
00000040: cec7 4b3f 45a2 933f d3a4 823f 08c5 553f
00000050: c739 8a3f 27af 543f d5e0 8f3f 83eb 813f
00000060: 3dc4 7d3f c153 8a3f 364b 733f e32f 7b3f
00000070: 13b4 933f 2e22 633f 99c3 923f 80e4 773f
00000080: 5172 933f 18fa 8e3f 620f 8d3f 6b1e 863f
00000090: 29cf 693f 5b6e 8f3f 36f7 833f e702 803f
000000a0: 3bb9 533f 34f3 813f a4af 6c3f e36a 833f
000000b0: 4f97 873f a50b 7f3f 3a5b 6b3f 4ea0 7f3f
000000c0: ae47 683f 34a0 803f e8f6 643f e538 7a3f
000000d0: 3cf9 813f 815c 883f d053 6e3f ee29 803f
000000e0: ce61 853f 416f 773f 9af5 623f 1572 573f
000000f0: cc3b 633f dff6 873f a9f2 673f ab18 7f3f
00000100: df06 763f 3143 813f a65e 8b3f 5072 7f3f
00000110: 7e56 893f b642 713f 3b63 7a3f 1318 7c3f
00000120: b202 733f 7558 713f e1b9 7c3f 311f 873f
00000130: 63e3 7b3f 4102 823f 6b31 8f3f 1ef1 8f3f
00000140: bdc4 7e3f 3044 8e3f fe4f 8a3f a4df 903f
00000150: 9b86 873f 0456 813f a80f 843f 3b0b 643f
00000160: 2084 433f 87cc 963f ecd9 803f cbf2 783f
00000170: db5f 753f 7e1d 683f f577 7b3f 8d74 8f3f
00000180: 405a 833f a853 853f 0b7d 4e3f 11bd 713f
00000190: 8669 803f 0b77 7f3f cef6 623f 5c1e 633f
000001a0: a506 793f 11a0 4b3f 7e73 763f ab9d 913f
000001b0: e077 773f e629 963f 9d03 7f3f 242c 8b3f
000001c0: e454 993f 1e79 713f 7b9c 823f 5202 783f
000001d0: afdc 563f 05c1 823f 5600 8d3f c6f6 7d3f
000001e0: 66fa 783f f5ab 933f 18e8 893f b9b0 883f
000001f0: 9cf9 923f d224 6c3f c14d 763f 09ef 833f
00000200: cd5e 553f 277e 8a3f 5608 7c3f 91c7 4a3f
00000210: 2f4f 933f e702 893f d9ed 8a3f 9dc3 613f
00000220: e173 823f 5028 8b3f 5b4e 883f 8ccd 8a3f
00000230: 5431 783f c0da 863f 9475 3e3f 09d3 4d3f
00000240: e0e5 813f 421a 923f 4b17 6c3f 2fb4 5b3f
00000250: f820 843f 9e5b 723f a8a7 923f 2e5b 853f
00000260: bf76 4c3f 7e9a 673f 5024 893f 51db 9a3f
00000270: 5074 913f c421 943f 2401 643f c518 673f
00000280: f932 903f 2302 753f 61c6 803f 6e71 7f3f
00000290: ab51 833f 621b 8e3f d2c7 3e3f db93 7e3f
000002a0: 0cb1 5c3f 5206 8f3f 8031 8f3f 44c2 7f3f
000002b0: ef74 4e3f a0e7 613f ef35 503f a092 723f
000002c0: ed11 7b3f fc56 553f 91a3 7a3f 81da 553f
000002d0: c9fd 793f 1947 943f 6066 873f 5ff7 863f
000002e0: 9325 8b3f 4602 613f dc96 903f 88f0 783f
000002f0: f0a9 713f dbd7 903f 3f46 793f ac6f 763f
00000300: b539 7a3f 2de4 843f 776a 883f f780 603f
00000310: f36a 743f 093e 833f 9dc8 763f dd24 8c3f
00000320: f724 823f e860 893f ea30 433f 6d65 843f
00000330: 8ab6 713f 19c7 9a3f 9c84 8f3f b213 883f
00000340: 0086 8f3f 6fbf 823f f8af 903f a22f 8f3f
00000350: 27f0 8a3f 2927 603f 80e3 823f f5d0 6f3f
00000360: 8be0 833f 2cf7 833f 0ee9 633f 01f8 8a3f
00000370: 4a97 843f 5a90 813f 6647 613f c481 893f
00000380: 99c1 6b3f 182d 8c3f 81e6 873f 34b1 523f
00000390: 1c3e 623f f522 753f 4526 883f b8b0 863f
000003a0: 5c0a 7b3f 8f4a 813f 69c8 8a3f 2510 793f
000003b0: df84 963f b6ad 803f 720c 953f 3e38 823f
000003c0: 62ba 823f fdc3 663f 8e55 8c3f cf24 943f
000003d0: 17db 553f eaca 903f d5e3 6e3f 64fb 8f3f
000003e0: 015f 673f 3428 383f 70fc 563f 56ed 8b3f
000003f0: 0f03 7d3f 5db5 863f f5a4 6f3f e24a 833f
0.9867127 1.0636111 1.1389383 1.1009595 1.0338732 1.0350763 0.8388971 1.0416595
0.7607058 1.1182299 1.200329 1.016675 0.93552184 1.0012114 1.1238176 0.9159789
0.7960175 1.1533896 1.020655 0.8350377 1.0798882 0.8307976 1.1240488 1.0149997
0.9912756 1.080681 0.9503664 0.98119944 1.1539329 0.8872403 1.1465942 0.9683304
1.1519262 1.1170073 1.102032 1.0478033 0.91331726 1.1205553 1.0309818 1.0000886
0.82704514 1.0152345 0.92455506 1.0266994 1.0593051 0.99627143 0.91936076 0.9985398
0.90734375 1.004889 0.8943925 0.97743064 1.0154185 1.065323 0.9309664 1.0012796
1.0420473 0.96654135 0.8865601 0.8415845 0.8876312 1.0622214 0.90604645 0.99647015
0.96104234 1.009863 1.088826 0.997838 1.072952 0.9424242 0.97807664 0.98474234
0.9492599 0.942756 0.9872113 1.0556394 0.9839384 1.0156938 1.1186956 1.1245458
0.9951895 1.1114559 1.0805662 1.131825 1.0587953 1.0104375 1.0317278 0.89079636
0.7637348 1.1781167 1.0066504 0.9724547 0.9584939 0.9067 0.98229915 1.1207443
1.0261917 1.0416155 0.8065955 0.9442912 1.0032203 0.9979102 0.88657844 0.887182
0.97275764 0.79541117 0.9626998 1.1376241 0.9666729 1.1731536 0.9961489 1.0872846
1.1979032 0.94325435 1.0204004 0.9687854 0.83930486 1.0215155 1.1015728 0.9920467
0.9725708 1.1536852 1.0773954 1.0678931 1.1482425 0.92243683 0.96212393 1.0307323
0.8334778 1.0819749 0.9845022 0.79210764 1.150854 1.0704011 1.0853835 0.8818911
1.0191613 1.0871677 1.0648912 1.0843978 0.9695027 1.0535507 0.7439816 0.8040014
1.0148277 1.1414263 0.9222304 0.85821813 1.0322561 0.94671047 1.1457415 1.0418451
0.7986869 0.9047011 1.0714207 1.209818 1.1363621 1.1572804 0.8906424 0.9027217
1.1265556 0.95706385 1.006054 0.99782455 1.0259298 1.1102107 0.7452365 0.9944436
0.8620765 1.1173804 1.1186981 0.999058 0.80647177 0.88244057 0.81332296 0.9475498
0.9807423 0.8333585 0.9790583 0.83536536 0.9765287 1.1584197 1.0578117 1.0544242
1.0870842 0.87894094 1.1296039 0.9724202 0.9439993 1.1315874 0.9737281 0.9626415
0.97744304 1.0382134 1.065749 0.87696785 0.9547569 1.0253307 0.9639986 1.094875
1.0167531 1.0732698 0.7624651 1.0343453 0.9441916 1.209201 1.1212344 1.063101
1.1212769 1.0214671 1.1303701 1.1186411 1.0854539 0.87559754 1.0225677 0.9367822
1.03029 1.0309806 0.8902749 1.0856935 1.035867 1.0122178 0.8799957 1.0742726
0.9209228 1.0951262 1.0617219 0.8230164 0.8837602 0.95756465 1.0636679 1.052268
0.9806268 1.0100878 1.084241 0.9729026 1.1759299 1.0053012 1.1644423 1.0173414
1.021313 0.90142804 1.0963609 1.1573733 0.8353743 1.1311924 0.93316394 1.1248593
0.9037934 0.71936345 0.8397894 1.0931804 0.9883279 1.0524098 0.9361108 1.0257227

network.1.bias f4 [256]
00000000: bcf5 91bd ebba 11be 1467 e8bd 0db8 983c
00000010: 14ba 9ebd 047f c6bd 0210 49be f37d 01be
00000020: e732 94be b929 823b 1479 abbd 46f8 41bd
00000030: 45c2 37be 8f83 11be ddb3 80be be09 2dbe
00000040: 9696 c3bd a756 babd 1791 03be ab8d 14bd
00000050: bf8e 9dbd 8cc7 36be bc92 56be 70e9 0cbe
00000060: 35e8 bebd ec2f 39be 30a2 66be 90f5 53be
00000070: a8d5 c2bd 8d72 f8bd c583 013e 0a56 043d
00000080: abb9 743e ef88 59be 7866 b2be ca00 16bc
00000090: b2d3 d9bd 61db 29bd d9fe d3bd 4bea 0abe
000000a0: e50f 0dbe a068 60bd abf8 6f3c 8cfd 8abd
000000b0: 6e15 85bd 7ac7 afbd 9560 51bd de8e 48be
000000c0: 1596 adbe 444d 0bbe e1dc d0bd 93b8 39be
000000d0: 1f1d 58be d2be 2cbe 343e 63bd 20c6 36be
000000e0: 9c52 8b3c f8f9 bfbd b4e9 8abe d09d c9bd
000000f0: c41e 32be f1ad 54be 0b83 15be e0cc b9bd
00000100: 7390 d2bd 0ced 2c3d 5ac4 fdbd c00f 77be
00000110: aab2 d5bd 37b8 b8bd 250f 68bd f08d a8be
00000120: a782 59be b168 0dbe bd28 573c 9866 12be
00000130: 79c6 11be ccd8 0ebe 75ee 353d ec67 3dbd
00000140: b469 4dbe be66 a13d f125 593d ac68 cfbd
00000150: 6dec 71be d7c6 23be f019 9f3d 69f6 7dbe
00000160: f709 8cbe 795f 40bc f2f5 98bc 6600 98bd
00000170: c15d f5bd ce28 3abd 93ea 27be d090 dfbc
00000180: 3738 923c 3fd3 2cbe f4c7 85be d1b5 8fbe
00000190: 490d d7bd 5e0c 0cbe bc84 17be 9180 e3bd
000001a0: 8a2f 68be 36fe 2ebe c8bf 04be 3ad8 203d
000001b0: 06e3 92be 16d0 30bc 5d4c cebc 4169 da3c
000001c0: ea0d 79bd 5749 13be 064b 1cbe b507 0dbd
000001d0: 167f 76be b562 8f3b 3298 74bd a55a f6bd
000001e0: 9436 1bbd 4d9b bdbd 641e 74bd ff4f 8a3c
000001f0: 107f c8bd 873a 79be f5bc febd e725 f9bc
00000200: 1084 6ebe ae82 00be 4f46 07be 3abe eabd
00000210: 5197 4bbd 6e0d 29be 44e2 bbbd 1314 28be
00000220: b33c 87bd 7b9a debc f547 2cbe 9f88 fbbd
00000230: 40b7 85bd d50f c43b c5d1 89be 0e9d 6dbe
00000240: ce0a 2bbe 289e a33a cde4 d3bd 3dd3 de3b
00000250: 7683 3fbe 9de2 15be e28e 66bd f63d 98bd
00000260: cd60 35be 7460 3dbe 2a7a 24be cc1a 9f3d
00000270: 849c 94bc a56b ccbd 9007 1abd 13f2 02bd
00000280: a6af 92bd d302 e1bc 2855 5bbc 3613 9fbc
00000290: e641 47be 23b6 ca3d dd54 b8be b3d9 aabd
000002a0: e824 28be a1a2 8cbd 29a8 503d 5ad1 b0bc
000002b0: 905d 87be 6150 90be aba2 d2bd a5f0 c6bd
000002c0: 68d2 3fbe d801 20be 41cf 74be da42 babd
000002d0: f47e 293d 8d7a 813d 43b8 383d 5c80 4ebe
000002e0: f4d2 0c3b 1e99 38be 71ab 46be a29f bbbe
000002f0: 276d 18be 27b8 a1bd 9cdf 3fbe fbf0 17be
00000300: ae24 5fbe fb01 c73d ba94 63be b041 f0bd
00000310: 42ab 1ebe 31c7 ba3c 0757 0db9 c764 6cbe
00000320: d258 11bc d438 8e3c 0070 4bbe 3359 68bd
00000330: 3c95 56be d127 7abd ee28 cebd e29d 51be
00000340: 89a3 8fbd f8db f7bd bd19 58be 9c22 2dbe
00000350: 35e7 c8be c256 2ebe 03fb 74bd a5f5 13be
00000360: a364 1bbe bdea aebd 2e7f 37be eb5e 40be
00000370: 2859 ffbb c55b f9bb 5394 88be d4d7 f9bd
00000380: 3933 1dbe ccda 4bbe 1c9d f9bd eb64 66be
00000390: c5ac 50be 7a53 173b d59a 863d 1187 bcbd
000003a0: ebca abbd 2d53 d83b cf9f 283d 4e88 11bd
000003b0: 6044 fb3d 3c4e 3abe c907 383d 6172 80bd
000003c0: c89e 9fbd ad2f 28be 181d 31be c1f5 b8bb
000003d0: 3692 0ebe 7e0a 82bd 50be 09bd 1c1d c03c
000003e0: 4559 19be d8f8 89be 8f15 0abe 3de4 8cbe
000003f0: 1838 33be 04be b33d 2965 88bd 1009 1dbe
-0.07126948 -0.1423146 -0.113477856 0.01864245 -0.07750335 -0.09692195 -0.19635013 -0.12645702
-0.28945085 0.003972259 -0.08372703 -0.047355913 -0.17945202 -0.14210342 -0.25137225 -0.16898248
-0.09550206 -0.09098559 -0.12848316 -0.036267918 -0.07693242 -0.17849559 -0.20954412 -0.13760924
-0.09321634 -0.18084687 -0.22522807 -0.20699143 -0.09513408 -0.12131224 0.12647922 0.032308616
0.23898952 -0.21243642 -0.34843802 -0.009155462 -0.10636081 -0.04146898 -0.10351343 -0.13565938
-0.13775595 -0.05478728 0.014646689 -0.067866415 -0.06498228 -0.08582969 -0.0511175 -0.1958575
-0.33903566 -0.13603693 -0.10198379 -0.18136816 -0.21104859 -0.16869667 -0.055479243 -0.17849016
0.017007165 -0.0937385 -0.27131426 -0.098445535 -0.17394549 -0.20769478 -0.1460077 -0.0907228
-0.10281458 0.042218253 -0.12390967 -0.24127102 -0.10434468 -0.09019511 -0.056655068 -0.3292079
-0.21241246 -0.13809468 0.013132271 -0.14296949 -0.14235868 -0.13949889 0.044416863 -0.046241686
-0.20059854 0.07880925 0.0530147 -0.101273865 -0.23625346 -0.1599382 0.07768619 -0.2480103
-0.27351353 -0.011741512 -0.018671963 -0.07421951 -0.11980773 -0.04544907 -0.16398077 -0.027290732
0.017849071 -0.16877459 -0.26129115 -0.28068402 -0.10500581 -0.13676593 -0.14796728 -0.111085065
-0.22674385 -0.17089161 -0.12963784 0.03926871 -0.2868883 -0.010791799 -0.025182897 0.026661517
-0.060804285 -0.14383446 -0.15262994 -0.034431178 -0.24071917 0.0043757805 -0.059715457 -0.12029008
-0.037893847 -0.09258137 -0.059599295 0.016883848 -0.0978986 -0.24338733 -0.124383844 -0.030413581
-0.23292565 -0.1254985 -0.13210414 -0.11462064 -0.049704853 -0.1650903 -0.09174016 -0.16413908
-0.06603374 -0.027173271 -0.16824324 -0.12281918 -0.06529093 0.0059833326 -0.26917854 -0.23204443
-0.1670334 0.0012483047 -0.10346375 0.006800084 -0.18702492 -0.14637227 -0.056288607 -0.07433693
-0.17712708 -0.18493825 -0.16062227 0.07768783 -0.018141039 -0.09981469 -0.03760487 -0.03196914
-0.071624085 -0.027467167 -0.013387002 -0.01941834 -0.19458732 0.09898021 -0.36002246 -0.08342304
-0.16420329 -0.068669565 0.05094162 -0.021584202 -0.2643857 -0.28186324 -0.10284933 -0.09713868
-0.18732607 -0.15625703 -0.23907186 -0.09094782 0.041380838 0.06322203 0.0450976 -0.20166153
0.0021488043 -0.1802716 -0.19401337 -0.36645228 -0.14885388 -0.078964524 -0.18737644 -0.1483802
-0.21791336 0.097171746 -0.22224703 -0.11731279 -0.15495017 0.02280006 -0.00013479228 -0.23085319
-0.008871274 0.017361082 -0.19866943 -0.056725692 -0.20955366 -0.061073128 -0.100664005 -0.20470384
-0.07013614 -0.121025026 -0.21103568 -0.16907734 -0.39238897 -0.17025283 -0.059809696 -0.14449175
-0.15175109 -0.085408665 -0.17919609 -0.18786208 -0.0077926107 -0.0076098167 -0.26675662 -0.12199369
-0.15351571 -0.19907683 -0.12188169 -0.22499435 -0.20378406 0.0023090527 0.065725006 -0.092054494
-0.08388313 0.006601712 0.04116803 -0.03553038 0.12268901 -0.18193907 0.0449293 -0.06271816
-0.07793957 -0.16424437 -0.17296255 -0.0056445305 -0.13922963 -0.063496575 -0.03362876 0.02345138
-0.1497546 -0.26947665 -0.13484786 -0.27517882 -0.17501867 0.08776477 -0.0665992 -0.15335488

network.1.running_mean f4 [256]
00000000: 4845 453e 585b d5ba 42ae a1bc c174 923d
00000010: c58a 233c 3884 aebd e172 e3bc e0f7 b83b
00000020: 09b3 863d 87ee b8bd 7568 95bb 921a ac3d
00000030: 1742 dd3d 30cf 62bc 57c4 a93c a471 9abd
00000040: b803 843d 4cd6 983b 32b9 a43c d02f a63d
00000050: 9398 363e 8c6f e93d cd6a 9b3d 7117 ba3d
00000060: 9f53 813d 5ebc 3cbd 631f 573c dde0 a5bd
00000070: c7bd 8d3d 2e68 cdbd e116 84bd 65a7 c03d
00000080: dbee 3bbe 5e2b 98bd aedc 373d 2508 62be
00000090: 0941 58bd 9e50 74bd ae68 1cbe 7ade f4bd
000000a0: d283 c7bc 8a5f 04be 5b82 88bd a6f1 1c3d
000000b0: 39a6 a53d 2ef3 263d bed1 df3d 104e 96b9
000000c0: 9a1a 543d 71e5 b0bd 3aef f83c f8ea 6d3e
000000d0: bb9c 753d 4c71 153e ce71 f6bd 8506 50bd
000000e0: dc1c 833c f93b 0fbc e796 ac3c bd17 2a3e
000000f0: 45cd b2bd db8c b03d e69a 893d 8b2a 79bc
00000100: be71 f93b 730e 89bb d5c1 883c b462 353d
00000110: 113c 043e 68e5 e13b 500a 243d f022 0ebe
00000120: 363a 433e de37 03be fd67 253d 61b4 ba3d
00000130: 1f40 4abd 0e15 03be dcbe dabc 452c 953d
00000140: 3ef5 a1bd d721 7fbd cb2c 23bd 86ce 3bbe
00000150: 8b88 563c 0e46 8d3d 4ab7 a0bd 3f53 93bd
00000160: dd44 a7bc 20a1 18be 95bc b23d 8d44 653d
00000170: 1eaa 2dbe ac1e ef3d 3a77 20be 52d9 823d
00000180: a7e0 25bd 4276 81bd 3a0e e13d fc3e 653c
00000190: da80 b93c e44d 87bd 9202 1dbe 5036 363e
000001a0: a95e 3bbc ad9f c1bd a37c 8bbd 17f5 32bd
000001b0: 4a83 8e3d 82cd 47bd f125 34be ea62 1a3e
000001c0: 5e53 1e3d 8f91 143e 22ab ad3d 91e1 a5bc
000001d0: 86d5 4fbe 8ec8 593d 2eed 80bd 98e3 1fbb
000001e0: 9c78 233d 1e51 70bd 2330 b6bd 03d7 2a3d
000001f0: f1ce 883d 9a2c bb3d 26e2 863d d4ab 5d3d
00000200: b4ca 0ebe 42ba 943b 56bc 003c c4c3 b0bd
00000210: 4e78 81bd bc65 e2bd 4220 e0bd e0a1 96bd
00000220: b3aa 3fbe 05dc 543c 23e1 353d e21d 243d
00000230: 9ee3 47be bbce 063d 8550 9abd 5e96 f6bc
00000240: a889 e13d 2404 a6bc fd32 0f3e 4b82 4abe
00000250: fdf7 babd dc44 2a3e a2f2 a63d bad8 16bc
00000260: 8948 5cbd 9800 cebd 3aa7 fd3d e897 bdbd
00000270: a549 033e 4770 f2bd f92c 10be b8a9 4e3b
00000280: 10cb 63be bf6f 083e 2312 96bc 782f 52bc
00000290: 5fba 393d 2f46 b83d 4418 55bd db39 a63c
000002a0: ee31 afbd 51ec 923d 91cd 923c 4528 263e
000002b0: f9e1 c6bc 7896 ca3c a6ef 83be af83 733d
000002c0: 6357 90bc 20e0 f5bd c16d 133e 9811 a8bb
000002d0: c6ce d8bd 52fe e2bd 5e8a 863d a521 093e
000002e0: 7596 dd3d 11ec 32bd 3ce4 a73d efea d83c
000002f0: 00fa 6abd 5f54 81bd f24c 4f3d 2e1e d83d
00000300: 5f77 a5bd 08ef 603d 6234 61bc d431 cbbd
00000310: f403 2ebe 11eb b43d fe5a 003d eeee 203e
00000320: 5537 af3b 45df 693d fb99 e8bd 84b1 0e3d
00000330: f3be 133e 98e1 a4bd ff40 bdbd a50e dfbd
00000340: 0d58 c1bc 13a0 0dbe c034 e3bd ae36 a6bd
00000350: 6d12 ab3d b050 1ebd 90fb a0bd 268a f53d
00000360: d051 2e3e 76b6 993c 8626 1cbd a9aa 2dbe
00000370: 2f6b 19be 385c 84bd 428d b43d 19e5 f5bd
00000380: 3aea 62bd 02a9 ce3d 0004 073e 4611 dabd
00000390: 5053 1c3e f04c ddbd 130f 8dbc 108b ee3c
000003a0: d854 443d 9684 31be 4a88 8b3d cb6b 9f3d
000003b0: 5d6d 32bc ad4e 47be ba15 2cbe 4227 c03d
000003c0: ea90 c5bc 1e53 f6bd 52f9 ccbc c0e5 6fbc
000003d0: 3a8c 853d 7959 89bb edb6 b83d 1a96 d3bd
000003e0: f8a4 babd 844a 2a3d c84c fa3c 2980 2abe
000003f0: 6b58 cebd 8a18 553c a0bb e6bd 903c df3d
0.1926471 -0.0016277833 -0.019736413 0.07151175 0.009981816 -0.085213125 -0.02776474 0.0056447834
0.06577117 -0.090298705 -0.0045595714 0.084035054 0.10803621 -0.013843343 0.020723505 -0.075412065
0.06446022 0.004664218 0.02010784 0.08114588 0.1783164 0.11398229 0.0758873 0.09086502
0.063147776 -0.04607808 0.013130042 -0.0809953 0.06920963 -0.10029636 -0.06449676 0.09406928
-0.18352835 -0.07430147 0.04488819 -0.2207342 -0.052796397 -0.059647195 -0.15274307 -0.119564965
-0.024354849 -0.1292707 -0.06665488 0.03831639 0.08088345 0.040759258 0.10928677 -0.0002866839
0.05178318 -0.086375125 0.03038751 0.23234165 0.059963923 0.14594 -0.12033425 -0.050787468
0.016004972 -0.008742326 0.02106805 0.16610618 -0.08730558 0.08620616 0.06718998 -0.015207897
0.007612436 -0.0041826307 0.016693989 0.044283584 0.12913539 0.0068938024 0.040048897 -0.13880515
0.19065174 -0.1281428 0.040382374 0.09116436 -0.049377557 -0.12801 -0.026702337 0.07283834
-0.07908104 -0.06228813 -0.03983764 -0.18340501 0.013094078 0.068981275 -0.078474596 -0.07193612
-0.020418579 -0.14905214 0.087273754 0.05597358 -0.16959426 0.11675772 -0.15670481 0.06389107
-0.04049745 -0.06321384 0.109890416 0.013992067 0.022644449 -0.06606653 -0.15333012 0.17794156
-0.011436143 -0.09454284 -0.06810882 -0.043690767 0.06958635 -0.048779972 -0.17592598 0.15076795
0.038653724 0.14508651 0.084799066 -0.02024916 -0.20296296 0.05316978 -0.062952384 -0.002439713
0.039909944 -0.05867111 -0.088959 0.041708957 0.06680096 0.091393664 0.06586103 0.054118946
-0.13944513 0.004538805 0.007857403 -0.08631089 -0.063217744 -0.110545605 -0.10943653 -0.07355094
-0.1871746 0.01299191 0.04440416 0.04006756 -0.19520423 0.032911997 -0.07534889 -0.030100998
0.11012584 -0.020265646 0.13984294 -0.19776265 -0.09129331 0.1662783 0.08151747 -0.009206945
-0.053780112 -0.10058707 0.123854116 -0.092574894 0.12821062 -0.118378215 -0.14079656 0.0031534266
-0.22245431 0.13323878 -0.018319195 -0.0128287 0.045343753 0.089977615 -0.052025095 0.02029126
-0.08554445 0.0717398 0.017920287 0.16226299 -0.024277674 0.024729952 -0.25768775 0.059451755
-0.017619794 -0.12005639 0.14397337 -0.0051290505 -0.10586314 -0.11083664 0.0656936 0.1339174
0.10819713 -0.04368216 0.08197829 0.026479213 -0.057367325 -0.06314921 0.05061049 0.10552631
-0.08079409 0.054915458 -0.013745399 -0.09921613 -0.16993695 0.08833898 0.031336777 0.15716144
0.0053471723 0.057097692 -0.113574944 0.03483726 0.1442831 -0.08050841 -0.09240913 -0.10891465
-0.023601556 -0.13830595 -0.11094046 -0.08115898 0.08353124 -0.03865117 -0.07860482 0.1198924
0.17023396 0.018763762 -0.038122676 -0.16959633 -0.14982294 -0.06462902 0.08816005 -0.120065875
-0.055399157 0.100908294 0.1318512 -0.10647826 0.15266156 -0.1080569 -0.017219102 0.029119045
0.047932476 -0.17335734 0.068131045 0.07784232 -0.010890332 -0.19463606 -0.16805163 0.09382488
-0.024116952 -0.12027572 -0.025021229 -0.014642179 0.06520887 -0.004191574 0.09019265 -0.10331364
-0.091134965 0.04157497 0.03055419 -0.16650452 -0.10075458 0.013006339 -0.112662554 0.10900223

network.1.running_var f4 [256]
00000000: 2314 9a3f 0bab a53f a51c 683f e39c 9c3f
00000010: edf5 863f 1918 5b3f 64f0 ba3f f04e cd3f
00000020: aad7 553f 8506 843f 76a6 933f 0c3f 863f
00000030: d41e 743f ef26 583f a643 4c3f a663 3c3f
00000040: f88e 973f c40f 9b3f 7b2b a73f b224 443f
00000050: 930e 833f d243 783f 3861 883f 6aa9 7f3f
00000060: 3090 8f3f 9657 953f 2fd4 b53f da93 9d3f
00000070: a95c 7b3f 2d27 ac3f bfe9 8d3f cabe 923f
00000080: cb3a af3f 4313 8b3f ed20 b73f f084 cd3f
00000090: 7dd8 a33f 8cce 993f 9501 0e40 668a 643f
000000a0: 39ad 8d3f b065 813f 87b8 833f d7d6 5b3f
000000b0: 6d8f 883f 0af5 e43f 9a0c 463f ada1 213f
000000c0: d07a 4d3f 3148 9c3f e48f a73f f5f1 d33f
000000d0: 5acc a03f 4fb0 8f3f d3ac 503f fa9d fc3f
000000e0: e345 893f 172e 9d3f 2a6e 403f ca6a 6a3f
000000f0: 5deb 423f 819d 583f 7128 a73f f10a 393f
00000100: 1e40 253f 3ffb a43f 2662 653f 4eec 5a3f
00000110: 7b86 a73f 162a 7c3f 43ee 9c3f 1b06 223f
00000120: db64 953f 6eb8 923f 7cdc 7a3f 2fe0 a63f
00000130: 535b 8c3f 63d6 683f 7e48 993f 1edc 4a3f
00000140: e642 a23f fcdc 7f3f 4fee a73f 81cd a63f
00000150: 234b 7d3f a4d7 9b3f 3796 993f 2a4f d33f
00000160: 17b5 d63f 22f2 313f cc75 863f 803d 983f
00000170: 8fec 643f ad94 7c3f 6062 b13f 9f67 503f
00000180: 9da0 6b3f e290 733f 01ed f33f fd6c bb3f
00000190: 46a6 a43f 4d65 873f 9481 aa3f 5bf0 c43f
000001a0: 47be 893f 14b1 3740 7ead 793f 7b5d b93f
000001b0: cd06 9d3f 2a0b 173f 7f22 6c3f 69d2 833f
000001c0: d612 ab3f c0f8 be3f db71 cc3f 9ca9 b43f
000001d0: 23fe 8c3f 1c1f b03f ecf3 4e3f 614e 413f
000001e0: 1733 ed3f 061e 783f 4619 913f 5afe a53f
000001f0: 8433 463f e793 6b3f 4b4c 873f b404 563f
00000200: b7f9 573f 976f 663f d748 5b3f 6ba2 bc3f
00000210: 9706 b33f 1679 603f 6a80 503f bc98 943f
00000220: 3771 963f 3297 653f 9db0 c63f bbac 1c3f
00000230: 4e38 d53f 6e8d a23f f3ae d33f ddfc 693f
00000240: 7fcf 4a3f 74b3 803f 298d cb3f a6c1 a73f
00000250: 5fab cd3f 6f1d 9c3f 21d4 5d3f 360b b73f
00000260: 3090 973f 2620 4e3f 7642 633f 9583 9f3f
00000270: 8919 783f b81a 5f3f 83b3 533f 6a82 7a3f
00000280: 2a98 b43f a199 713f 7e36 4a3f 7a4c 883f
00000290: 3f75 133f 0131 783f 40f2 bf3f c41b ac3f
000002a0: f2e1 2040 8bba 8f3f 58c7 7d3f 8248 693f
000002b0: 5dca 713f 8595 583f 06a0 f83f dede 8c3f
000002c0: cbcb 473f 6328 a33f f8ca e23f 00b3 eb3f
000002d0: 9933 ae3f 2deb 6c3f cdb0 8b3f 17e0 a93f
000002e0: 9129 8f3f d692 a43f e6a8 843f 938d 663f
000002f0: 1e48 8a3f f4ee 903f 9f4a 833f 1932 413f
00000300: 6a19 a43f 4038 b53f 8152 4f3f 4fa7 963f
00000310: c1e0 723f 58f8 5d3f 2ad6 8c3f 9f66 683f
00000320: b355 c53f 3000 cf3f dfd8 783f 7e54 953f
00000330: 6df0 983f 485e c03f 860b d23f 6fce 2d3f
00000340: f564 563f 0b3a ce3f 07c5 733f 1f85 323f
00000350: b03b b03f 27d0 ca3f d4a0 4d3f 6ce7 713f
00000360: f428 813f ad3b c73f a368 b33f 3ced 6e3f
00000370: 781d 853f e8b3 8a3f c73e 873f 8566 863f
00000380: 3d55 8d3f 03ba 1e3f 458a 523f eb67 e23f
00000390: c5c5 8b3f 5ae5 ad3f bbe9 a13f aa8e 9e3f
000003a0: 9e48 cf3f 08c4 9e3f 120f 883f 4bc6 eb3f
000003b0: 4d8b 863f a1f1 873f fe75 963f 7a71 783f
000003c0: 654c a23f b8eb f73f 5997 903f 5e6e 513f
000003d0: ec48 8c3f 8d23 863f 54bd a33f f380 6f3f
000003e0: 93a0 ce3f 542f e73f 4b1c 8f3f 2c8a b73f
000003f0: 151b a43f 26aa 923f 5d4a 5b3f f5c9 973f
1.2037395 1.2942823 0.9066871 1.2235378 1.05438 0.85583645 1.4604611 1.6039715
0.835322 1.031449 1.1535175 1.048799 0.9535954 0.8443441 0.79790723 0.7358955
1.1840506 1.2114186 1.3060144 0.7661849 1.0238823 0.96978486 1.0654669 0.9986788
1.1215878 1.1667354 1.4205378 1.2310746 0.98188263 1.3449455 1.1086959 1.1464474
1.3689817 1.0865253 1.4306923 1.6056194 1.2800442 1.2016158 2.2188466 0.8927368
1.1068488 1.0109158 1.0290688 0.85874695 1.066877 1.788728 0.7736298 0.6313732
0.8026552 1.2209531 1.3090787 1.6558214 1.2562363 1.122568 0.8151371 1.9735711
1.0724453 1.227969 0.75168097 0.915692 0.76140386 0.8461533 1.3059217 0.7228232
0.6455096 1.2889174 0.8960289 0.8551682 1.3087915 0.9850172 1.2260212 0.63290566
1.1671404 1.1462533 0.9799268 1.3037165 1.096537 0.9095213 1.1975248 0.7924212
1.2676666 0.9994657 1.3119601 1.3031465 0.98942775 1.2175183 1.1998967 1.6508534
1.6774014 0.6951009 1.0504699 1.1893768 0.8942346 0.9866436 1.3858147 0.81408113
0.9204195 0.9514295 1.9056703 1.4642636 1.2863243 1.057779 1.3320794 1.5385851
1.0761193 2.870183 0.97530353 1.4481653 1.22677 0.5900141 0.92240137 1.0298587
1.3365123 1.4919662 1.5972246 1.4114261 1.1015056 1.3759494 0.80840945 0.7551022
1.8531216 0.9692081 1.1335838 1.2968247 0.77422357 0.92022556 1.0570158 0.83600926
0.8436541 0.9001402 0.8565802 1.4737066 1.3986386 0.8768476 0.81445944 1.1609111
1.17533 0.8968383 1.5522648 0.61201066 1.6657808 1.2699411 1.6537765 0.91401464
0.79222864 1.0054765 1.5902454 1.3105972 1.6067923 1.2196482 0.8665181 1.4300296
1.1840878 0.80517805 0.88773286 1.2462031 0.96913964 0.87150145 0.8269579 0.97855246
1.4108937 0.94375044 0.789894 1.0648339 0.5760078 0.96949774 1.4995804 1.3445973
2.5137906 1.1228803 0.991323 0.91126263 0.94449407 0.8460315 1.9423835 1.1005514
0.7804534 1.27467 1.7718191 1.8414001 1.3609496 0.9254635 1.091333 1.3271512
1.118456 1.2857311 1.0364044 0.90059775 1.0803258 1.1322923 1.0257148 0.7546707
1.2820256 1.4157791 0.80985266 1.1769809 0.948742 0.8670707 1.1002858 0.9078159
1.5416778 1.6171932 0.9720592 1.166641 1.1948372 1.5028772 1.6409767 0.6789312
0.837478 1.6111463 0.95222515 0.69734377 1.3768215 1.5844773 0.8032353 0.94493747
1.0090623 1.5565087 1.4016308 0.9333074 1.0399618 1.0836153 1.0566033 1.0500036
1.1041638 0.6200258 0.8224223 1.7687963 1.091973 1.3585618 1.2649454 1.2387288
1.6194036 1.2403574 1.0629599 1.8419889 1.0511261 1.0620614 1.1754758 0.9704815
1.2679564 1.9368811 1.1296188 0.8180903 1.0959754 1.0479599 1.2792153 0.93556136
1.6142753 1.8061318 1.1180509 1.4339042 1.2820765 1.1458175 0.85660344 1.1858507

network.4.weight f4 [165, 256]
00000000: 662c 20be 7925 ab3c 8f95 dcbd 9dba 21bd
00000010: b3b7 e5bd 9401 02be f764 10bd 8450 0ebe
00000020: 19f7 683d 45d6 dfbd 2f08 0fbe f9d2 5d3d
00000030: 1b88 0cbd 9e90 cabd ef18 a2bd 3c83 ee3c
00000040: aefd 5b3d 9ffb 31bc 23bb 4ebd b838 13bd
00000050: d97f 573d 7cd8 fbbd 5e0a bfbd cf3f bebd
00000060: eafc ac3d 221a 09be 2bcd 053d 97bc 323d
00000070: 8e83 41be 59d8 b73d bb52 063e 9a7a 813d
00000080: a269 0cbe b19b 44be 7316 bc3c d527 95be
00000090: 7d97 a5bc 19a3 29be 560f f2bd 04da 47be
000000a0: ec31 39bd e15e 1bbe 6ae0 843c b7fe 813d
000000b0: ef24 e5bd 18f2 43be 5948 9fbd 5960 4b3d
000000c0: 90de 1d3d 2d22 263d 0540 89bd bbcb 34bc
000000d0: 9123 983d a65e e2bc a010 103d 4cb9 eb3d
000000e0: c294 85be 3da3 babc bf76 b73d fd8b 2d3d
000000f0: 033a 9e3c 8be9 3dbe 6b7a 273e 767b 7ebb
00000100: d497 a1bd 4fd6 06be 574f a0be b22e 9c3d
00000110: 1471 59bd ea30 b63d a24b 173e 8096 7bbd
00000120: bd8d 843d 08a1 e0bb 9d7c 763d bb1e 083e
00000130: 6470 44be 46d1 80be 0221 1a3e 4112 853d
00000140: 279e 3fbc 78e4 333e 6907 36be 8d7d fdbd
00000150: b107 a03d 8eea 243e 888f 0ebe 0a1d c23c
00000160: 7746 473e a2bd 78be 5403 9fbd 55ef 113c
00000170: 79a6 543d 1134 d33c 4cf6 06be ad63 263d
00000180: eae5 4abe 6eb5 84bd ddd4 c3bc 41a9 f83b
00000190: 37c6 e83b 15cd d53c 10bb 10be 75c3 b83b
000001a0: 9d05 53bd d54a ddbd 6350 efbc 781b 373c
000001b0: d777 be3d b8ce 5bbd e4a3 d4bd 66ad 633d
000001c0: 7e08 4abe 6fc8 9a3d 4420 e3bc 924b 5cbd
000001d0: 57fb 023c 6af6 91bc b554 14bc e947 ca3d
000001e0: ecdf 42bd 7ac7 5bbe f623 c1bb ac5c 2cbe
000001f0: ecb0 ebbc bef4 5b3d ca50 ad3d 05e2 9eba
00000200: cff1 0a3e 4b67 e7bd 3c88 47be 1ca3 abbc
00000210: e66c 6cbe 9989 b2bd c4a2 1abd 0720 263d
00000220: be68 c93d 835a 243d 9b2d bb3d 2283 1e3d
00000230: 6d4b 883d 4654 9a3b 11dc 4bbc d6fa adbd
00000240: a998 533d a3a8 833d 5187 26bd 4cfa efbc
00000250: 8785 f1bd 25e0 273e 67dc 59be 545b 00bb
00000260: 0068 9cbd 368e e43c 0273 833d 715a acbc
00000270: a76b 0ebe b5ef 4fbd c900 a33d a6d7 cf3d
00000280: f70d 99bd aa25 823d b380 803e 4e02 68bd
00000290: e781 9bbc 7f51 0e3e 646b 96bd 7514 73bd
000002a0: b33e c33c f84c 03be 397e 0f3e 9e97 b03d
000002b0: 7d31 403d 7e69 80be fcdc ec3d 6229 d83d
000002c0: d66c 753d 645d b03d a5d6 8dbd 887a 81bd
000002d0: c935 9bbd 724f 033e 1827 debc 0d81 093e
000002e0: c3e5 9bbd 4aae 283d 0b0e b53c 7213 53be
000002f0: 3c58 6f3d 4d58 1ebd 7271 01be fd99 503c
00000300: cc74 d93d 8693 403e 9da2 263d 9244 f83d
00000310: abb6 88be ffc4 e13d 3a0d e73d e1e3 883b
00000320: 4556 e7bc 2ffc 603d 8f7d ad3d d15a 40bd
00000330: 57e0 b13d ea1e 41bd e9c4 85bc face bdbd
00000340: d4d0 8cbe d754 d2bd 1e8d 8cbd 9fe7 a2bd
00000350: 8c9d f93d 1037 c9bd 881c 1f3d 3178 393d
00000360: 5f75 37bd eb85 cdbd bd07 a3bd ec61 05bb
00000370: 5d84 a5bd cd9b b7bd 5bfd e93c 6193 84be
00000380: 8f1c 18bc fac2 9dbd 2e43 9ebd 9b3f 813d
00000390: a352 b8bd 81d7 453e 1182 85bd f8aa f93c
000003a0: 5aba 7cbd 5a42 1cbe f9af c2bd a68b 0c3c
000003b0: 9764 233d 957d 20be 3faa 87bd be89 6bbd
000003c0: 3ad5 eb3c 4d37 8c3d 8896 b4bc 8f80 0a3e
000003d0: aa77 bdbd d1b0 8fbc d669 b53d 6bc3 933c
000003e0: 12a4 c73c 52b1 963d 354b 9fbc 3da2 1ebe
000003f0: a0ed e83d 3e04 03be 25d5 d03c e08f de3d
-0.15641937 0.020891892 -0.107707135 -0.03948461 -0.112166785 -0.12695915 -0.035252538 -0.13897902
0.056876276 -0.109295405 -0.13967966 0.054156277 -0.034309488 -0.09890865 -0.07914912 0.029115312
0.053708725 -0.010863214 -0.050471436 -0.035942763 0.05261216 -0.122971505 -0.09328149 -0.09289514
0.08446677 -0.13388875 0.032666367 0.043636885 -0.1889784 0.08976812 0.13117497 0.063222125
-0.1371217 -0.19200017 0.022959923 -0.29131952 -0.020213837 -0.16566123 -0.11819331 -0.1951676
-0.045213625 -0.15172912 0.01622029 0.06347411 -0.11188685 -0.1913532 -0.07777471 0.04965243
0.03854233 0.040559936 -0.06701664 -0.011034901 0.07428659 -0.027633023 0.035172105 0.11509952
-0.26090056 -0.022782916 0.08958196 0.04236983 0.019314772 -0.18546121 0.16355292 -0.0038830913
-0.07890287 -0.1316769 -0.31310531 0.07626094 -0.053086355 0.08896048 0.14774945 -0.061422825
0.06472347 -0.006855134 0.060177434 0.13292973 -0.19183499 -0.25159663 0.15051654 0.06497622
-0.011695421 0.17567623 -0.17776264 -0.123774625 0.07813967 0.161051 -0.1392194 0.023695488
0.19460474 -0.24291089 -0.07764307 0.008907159 0.051916573 0.025781663 -0.13179892 0.040622402
-0.19814268 -0.064799175 -0.023905212 0.007588536 0.007103707 0.026098767 -0.14133859 0.0056385347
-0.051519025 -0.10805289 -0.029213136 0.011175983 0.093002014 -0.05366394 -0.10382822 0.055585288
-0.19729802 0.07557761 -0.027725346 -0.053783007 0.007994494 -0.017817695 -0.009053399 0.09876997
-0.04757683 -0.21462813 -0.0058941795 -0.16832227 -0.028770886 0.0537002 0.08462675 -0.0012121802
0.13568805 -0.112989984 -0.19485563 -0.0209518 -0.23088416 -0.08717651 -0.03775288 0.040557887
0.09834431 0.04012538 0.09139558 0.038699277 0.06655011 0.004709753 -0.012442605 -0.08495109
0.05165926 0.06428649 -0.04065639 -0.029294156 -0.117930464 0.16394098 -0.21275483 -0.0019585686
-0.07637024 0.027899843 0.064184204 -0.02103922 -0.13908254 -0.05076571 0.07959134 0.101485536
-0.07473367 0.0635484 0.2509819 -0.056642823 -0.01898284 0.13898276 -0.07344702 -0.05934568
0.023833608 -0.1282233 0.14012994 0.08622669 0.046922196 -0.25080484 0.11565587 0.10554768
0.059918247 0.08611563 -0.06925706 -0.06322199 -0.07578618 0.12823275 -0.02711825 0.13428135
-0.07612183 0.04118184 0.022101423 -0.20612887 0.058433756 -0.03865843 -0.12640932 0.012732026
0.1061798 0.18806276 0.040682424 0.12122454 -0.26701865 0.11023902 0.1128182 0.004177556
-0.028239379 0.054928 0.08471214 -0.04696161 0.086853676 -0.047148623 -0.016329246 -0.09267993
-0.27503073 -0.10270088 -0.068628535 -0.079543345 0.12188253 -0.098249555 0.03884557 0.04528064
-0.04478967 -0.100353085 -0.0796046 -0.0020352555 -0.08081887 -0.089652635 0.028563192 -0.2589369
-0.009284153 -0.077032045 -0.07727657 0.0631096 -0.09000137 0.1932049 -0.06518949 0.030477032
-0.061701156 -0.15259686 -0.0950622 0.008578217 0.03989085 -0.15672906 -0.06624269 -0.057504408
0.028788198 0.06846485 -0.022044435 0.13525604 -0.0925134 -0.017540367 0.08858077 0.018037518
0.024370227 0.0735804 -0.019445041 -0.15491576 0.11373448 -0.12794587 0.02549226 0.10867286

network.4.bias f4 [165]
00000000: e4c2 a13c 148d e6bc 0ec4 053d 19fc 3fbd
00000010: b88a 3a3d e946 383b 7610 86bc 6fbf f7bc
00000020: d9e8 c7bc ff39 34bd c253 07bd 6b54 6f3d
00000030: e542 e43c 4a3c 31bd 7ab8 2a3d c990 f9bc
00000040: b6df d43c 3b78 81bb 60e1 d03c 6fa5 b7bb
00000050: a937 453a 8a5a 413c f885 77bd a0f3 973b
00000060: 73e5 68bd c2f3 36bd 8e7d f8bb 998c 4bbd
00000070: 3d82 9abb e8b8 39bd 6716 803c 09cc 873c
00000080: 9f37 81bb eaa7 20bd 84e5 31ba 8af2 4d3d
00000090: 4969 1fbd a715 f6bc 3071 413c 108b ea3c
000000a0: f824 c83c 04bc 2f3d 9335 74bd 46fc af3c
000000b0: e84c 4f3d 7499 d9bb a98d 1ebd be48 4fbd
000000c0: ca33 4abd a027 c2bc 440c 32bd b743 c9bc
000000d0: 6bb2 4b3b f729 38bc e5ed 92bb 3a92 2a3d
000000e0: 4136 17ba 7d35 40bd 73c1 ce3c d043 973c
000000f0: 9094 ca3c f38b 183d aff9 99bc 0d4b 74bd
00000100: 8d79 5b3d b167 70bc bbfb 2bbd 1e4e 5abd
00000110: e21d 873a e414 86bd 8db4 38bc 65e7 a5bb
00000120: 8fe8 27bd 300d e4bc 39f7 53bd 283e f23c
00000130: 7e3a 56bd daf8 2d3c ec23 b23c 4ddb 553d
00000140: b5e5 f03c 9ebe 10bd 20dc 7c3c 97da 233d
00000150: af7c 433d 126d 1bbd 73d2 61bd 4795 ba3c
00000160: 9c8b 2c3d 69d9 2b3d e5e3 dd3c 15ac afbc
00000170: dc76 c8ba f220 1abd 613c 44bd bcfe 753c
00000180: 0c1a d4bc 26c4 a9bc 6848 ebb9 f3b6 b43c
00000190: 1d8f c6ba c7cb a3bc d6e4 b83c 522a a3bc
000001a0: f8d1 ae3c 7228 053d f419 263c 926c 493d
000001b0: 185f 593d ec35 213d 19a1 09bd 2b1c 32bd
000001c0: ef0f 2dbd a911 32bd 9752 c3bc 3cf0 3fbd
000001d0: 636c 5f3d 97db 023d 20d4 e03c cb91 903b
000001e0: 2391 c8bc dbfc dfba aa0d 61bd aeb6 363d
000001f0: 3009 4a3d 0c79 d5bc b353 d43b 3a5e 81bd
00000200: fed5 6dbd 06a5 20b9 ad6c 38bc 5830 803d
00000210: 1af1 19bd 28ed 32bd 438b 863d eead e1bc
00000220: 97fe 68bd e798 493d 1e45 0a3d c701 a83c
00000230: 08a9 20bd 3108 83bc b542 63bd 89bc cd3b
00000240: 03e2 40bd 9529 6f3d db32 a33c 6133 0c3c
00000250: 158a 483c 6d2b 3c3d 7e38 753d d98b 17bc
00000260: 541b ad3b 29ce 0abc 1c2e 27bc db5d c93c
00000270: f0b8 2dbc c075 673d b584 913c d531 46bd
00000280: bb32 e2bb e2eb 80bd a642 66bc 126f 1abc
00000290: be92 3ebc
0.019746251 -0.028143443 0.032657675 -0.04687128 0.04554245 0.0028118438 -0.016365271 -0.03024265
-0.024403023 -0.044000622 -0.033038862 0.058430117 0.027863929 -0.043270387 0.041679837 -0.030464547
0.02598558 -0.0039511 0.025498092 -0.005604438 0.00075232476 0.011801371 -0.060430497 0.0046371967
-0.056859445 -0.04466606 -0.0075833267 -0.04969463 -0.0047152326 -0.045342356 0.015635682 0.016576784
-0.003943398 -0.039222635 -0.00067862147 0.05028013 -0.038918767 -0.030039622 0.011806771 0.028630763
0.02443169 0.042903915 -0.059621405 0.021482598 0.050610453 -0.0066406075 -0.038709316 -0.05060648
-0.049365796 -0.023700535 -0.04346873 -0.024568422 0.0031081687 -0.011240474 -0.0044839256 0.04164336
-0.00057682773 -0.04692601 0.025238728 0.018464953 0.024729043 0.03724284 -0.018795816 -0.059641887
0.053582717 -0.014673159 -0.041988116 -0.053297155 0.0010308588 -0.06546953 -0.011273515 -0.005062985
-0.04099327 -0.02783832 -0.05174944 0.029570654 -0.052301876 0.010618413 0.021745645 0.052211095
0.029406408 -0.035338037 0.015433341 0.040003385 0.04772633 -0.037945814 -0.05513234 0.02277626
0.04212533 0.041955385 0.027086208 -0.02144436 -0.0015294212 -0.037629075 -0.047909144 0.015014347
-0.025891326 -0.020723414 -0.0004487664 0.022059893 -0.0015148852 -0.01999463 0.022570055 -0.01991764
0.021340355 0.032509275 0.010138024 0.049175806 0.053069204 0.039358065 -0.0336009 -0.043483894
-0.042251524 -0.043473873 -0.023843093 -0.046859965 0.054546725 0.0319477 0.0274449 0.004411911
-0.02448327 -0.0017088907 -0.05494467 0.04460781 0.049325168 -0.026058696 0.0064797043 -0.063168004
-0.058065407 -0.00015320265 -0.011256379 0.06259221 -0.037583448 -0.0436832 0.06569531 -0.027548756
-0.05688342 0.049218085 0.03375732 0.02050866 -0.0392237 -0.015995117 -0.05548354 0.0062785787
-0.04709054 0.058389265 0.01992171 0.008557172 0.012239953 0.04593985 0.05986833 -0.009249651
0.005282799 -0.008472004 -0.010203864 0.024580887 -0.010603175 0.05650878 0.017763475 -0.048387367
-0.00690302 -0.06294991 -0.014053976 -0.009425895 -0.011631666
